checkpoints/checkpoints/my_experiment/checkpoint_epoch_5.pt (torch, 2813 bytes, 1 tensors)

fc.weight f4 [1, 32]
00000000: 832e ffbd 32b8 b4bd 7328 16be e7de fd3d
00000010: 6155 04be f8d9 82bd ed25 a53d ca25 06be
00000020: c7bb 2bbe 5517 20bd 2bb7 23be e1f1 a1bd
00000030: 97dd 8b3d a408 e3ba 53f7 043e bd65 1fbe
00000040: 87b5 d9bd 116b 15be 8bc9 163e b5cf 6d3d
00000050: 444b 0abd 341f 063e 52fb a4bd d550 0f3d
00000060: 4f6c 443d fb1e a8bc 6315 a53d 0f38 5f3d
00000070: 75bb 943d 12d8 a5bd 2644 523b bdab b53d
-0.12460043 -0.08824195 -0.14663868 0.12396031 -0.12923194 -0.063892305 0.080638744 -0.13100353
-0.1677085 -0.03908475 -0.15987842 -0.07907463 0.06829374 -0.0017321301 0.12984972 -0.15566154
-0.10630327 -0.14591624 0.1472532 0.058059413 -0.033763185 0.1309784 -0.08055748 0.034989197
0.047954854 -0.020522585 0.0806072 0.05449682 0.07262317 -0.08097853 0.0032084077 0.08870647
