checkpoints/checkpoints/my_experiment/checkpoint_epoch_50.pt (torch, 2821 bytes, 1 tensors)

fc.weight f4 [1, 32]
000000 06 96 2b 3e 60 7d 02 3e d1 d3 8c 3d 43 b4 06 3e
       0.16756448 0.1274314 0.06876338 0.13154702
000010 15 20 6c bb ee 7e 2d be 52 1b e8 bd 20 d7 22 bd
       -0.0036029865 -0.16942951 -0.11333336 -0.03975594
000020 bc dd 95 bd 41 2f 1e 3e ec ce a3 bc 1a 9b ce bd
       -0.07317683 0.15447713 -0.019996129 -0.10088177
000030 c2 f8 b1 3d bd 2a 93 3c b7 4d 63 3d ec c9 2b be
       0.08690025 0.017964715 0.055494037 -0.16776246
000040 86 c6 13 be bb ad 05 3e 84 9e bd bd 4b f8 7f 3b
       -0.144312 0.13054554 -0.0925875 0.0039057906
000050 94 3d ba bd a8 66 9f bd 66 e9 f2 bc c3 b9 8a bd
       -0.09093776 -0.07783252 -0.029652309 -0.067737125
000060 1b 72 24 3e c7 60 95 3d 0d e0 a7 3d 36 46 1f 3e
       0.16059153 0.072938494 0.08197031 0.15554127
000070 73 89 30 3d 5d 0d 3e 3d 9a b6 c3 bd 04 56 ef 3d
       0.04309983 0.046399463 -0.09556313 0.11686328
